Warning: no access to tty (Bad file descriptor).
Thus no job control in this shell.
cuda:0
[2021/06/03 23:38:07] loading pickle data
==========================================================================================
Layer (type:depth-idx)                   Output Shape              Param #
==========================================================================================
dilation1                                --                        --
├─Embedding: 1-1                         [32, 512, 5]              25
├─ModuleList: 1                          --                        --
│    └─conv1DBatchNorm: 2-1              [32, 128, 512]            --
│    │    └─Conv1d: 3-1                  [32, 128, 512]            3,200
│    │    └─BatchNorm1d: 3-2             [32, 128, 512]            256
│    └─Hardswish: 2-2                    [32, 128, 512]            --
│    └─scSE: 2-3                         [32, 128, 512]            --
│    │    └─AdaptiveAvgPool1d: 3-3       [32, 128, 1]              --
│    │    └─Linear: 3-4                  [32, 8]                   1,024
│    │    └─Linear: 3-5                  [32, 128]                 1,024
│    │    └─Conv1d: 3-6                  [32, 1, 512]              129
│    └─conv1DBatchNormRelu: 2-4          [32, 128, 512]            --
│    │    └─Conv1d: 3-7                  [32, 128, 512]            81,920
│    │    └─BatchNorm1d: 3-8             [32, 128, 512]            256
│    │    └─ReLU: 3-9                    [32, 128, 512]            --
│    └─conv1DBatchNormRelu: 2-5          [32, 128, 512]            --
│    │    └─Conv1d: 3-10                 [32, 128, 512]            81,920
│    │    └─BatchNorm1d: 3-11            [32, 128, 512]            256
│    │    └─ReLU: 3-12                   [32, 128, 512]            --
│    └─conv1DBatchNormRelu: 2-6          [32, 128, 512]            --
│    │    └─Conv1d: 3-13                 [32, 128, 512]            81,920
│    │    └─BatchNorm1d: 3-14            [32, 128, 512]            256
│    │    └─ReLU: 3-15                   [32, 128, 512]            --
│    └─conv1DBatchNormRelu: 2-7          [32, 128, 512]            --
│    │    └─Conv1d: 3-16                 [32, 128, 512]            81,920
│    │    └─BatchNorm1d: 3-17            [32, 128, 512]            256
│    │    └─ReLU: 3-18                   [32, 128, 512]            --
│    └─conv1DBatchNormRelu: 2-8          [32, 128, 512]            --
│    │    └─Conv1d: 3-19                 [32, 128, 512]            81,920
│    │    └─BatchNorm1d: 3-20            [32, 128, 512]            256
│    │    └─ReLU: 3-21                   [32, 128, 512]            --
│    └─conv1DBatchNormRelu: 2-9          [32, 128, 512]            --
│    │    └─Conv1d: 3-22                 [32, 128, 512]            81,920
│    │    └─BatchNorm1d: 3-23            [32, 128, 512]            256
│    │    └─ReLU: 3-24                   [32, 128, 512]            --
│    └─conv1DBatchNormRelu: 2-10         [32, 128, 512]            --
│    │    └─Conv1d: 3-25                 [32, 128, 512]            81,920
│    │    └─BatchNorm1d: 3-26            [32, 128, 512]            256
│    │    └─ReLU: 3-27                   [32, 128, 512]            --
│    └─conv1DBatchNormRelu: 2-11         [32, 128, 512]            --
│    │    └─Conv1d: 3-28                 [32, 128, 512]            81,920
│    │    └─BatchNorm1d: 3-29            [32, 128, 512]            256
│    │    └─ReLU: 3-30                   [32, 128, 512]            --
│    └─conv1DBatchNormRelu: 2-12         [32, 128, 512]            --
│    │    └─Conv1d: 3-31                 [32, 128, 512]            81,920
│    │    └─BatchNorm1d: 3-32            [32, 128, 512]            256
│    │    └─ReLU: 3-33                   [32, 128, 512]            --
│    └─conv1DBatchNormRelu: 2-13         [32, 128, 512]            --
│    │    └─Conv1d: 3-34                 [32, 128, 512]            81,920
│    │    └─BatchNorm1d: 3-35            [32, 128, 512]            256
│    │    └─ReLU: 3-36                   [32, 128, 512]            --
│    └─conv1DBatchNormRelu: 2-14         [32, 128, 512]            --
│    │    └─Conv1d: 3-37                 [32, 128, 512]            81,920
│    │    └─BatchNorm1d: 3-38            [32, 128, 512]            256
│    │    └─ReLU: 3-39                   [32, 128, 512]            --
│    └─conv1DBatchNormRelu: 2-15         [32, 128, 512]            --
│    │    └─Conv1d: 3-40                 [32, 128, 512]            81,920
│    │    └─BatchNorm1d: 3-41            [32, 128, 512]            256
│    │    └─ReLU: 3-42                   [32, 128, 512]            --
│    └─conv1DBatchNormRelu: 2-16         [32, 128, 512]            --
│    │    └─Conv1d: 3-43                 [32, 128, 512]            81,920
│    │    └─BatchNorm1d: 3-44            [32, 128, 512]            256
│    │    └─ReLU: 3-45                   [32, 128, 512]            --
│    └─conv1DBatchNormRelu: 2-17         [32, 128, 512]            --
│    │    └─Conv1d: 3-46                 [32, 128, 512]            81,920
│    │    └─BatchNorm1d: 3-47            [32, 128, 512]            256
│    │    └─ReLU: 3-48                   [32, 128, 512]            --
│    └─conv1DBatchNormRelu: 2-18         [32, 128, 512]            --
│    │    └─Conv1d: 3-49                 [32, 128, 512]            81,920
│    │    └─BatchNorm1d: 3-50            [32, 128, 512]            256
│    │    └─ReLU: 3-51                   [32, 128, 512]            --
│    └─conv1DBatchNormRelu: 2-19         [32, 128, 512]            --
│    │    └─Conv1d: 3-52                 [32, 128, 512]            81,920
│    │    └─BatchNorm1d: 3-53            [32, 128, 512]            256
│    │    └─ReLU: 3-54                   [32, 128, 512]            --
│    └─conv1DBatchNormRelu: 2-20         [32, 128, 512]            --
│    │    └─Conv1d: 3-55                 [32, 128, 512]            81,920
│    │    └─BatchNorm1d: 3-56            [32, 128, 512]            256
│    │    └─ReLU: 3-57                   [32, 128, 512]            --
│    └─conv1DBatchNormRelu: 2-21         [32, 128, 512]            --
│    │    └─Conv1d: 3-58                 [32, 128, 512]            81,920
│    │    └─BatchNorm1d: 3-59            [32, 128, 512]            256
│    │    └─ReLU: 3-60                   [32, 128, 512]            --
│    └─conv1DBatchNormRelu: 2-22         [32, 128, 512]            --
│    │    └─Conv1d: 3-61                 [32, 128, 512]            81,920
│    │    └─BatchNorm1d: 3-62            [32, 128, 512]            256
│    │    └─ReLU: 3-63                   [32, 128, 512]            --
│    └─conv1DBatchNormRelu: 2-23         [32, 128, 512]            --
│    │    └─Conv1d: 3-64                 [32, 128, 512]            81,920
│    │    └─BatchNorm1d: 3-65            [32, 128, 512]            256
│    │    └─ReLU: 3-66                   [32, 128, 512]            --
│    └─conv1DBatchNormRelu: 2-24         [32, 128, 512]            --
│    │    └─Conv1d: 3-67                 [32, 128, 512]            81,920
│    │    └─BatchNorm1d: 3-68            [32, 128, 512]            256
│    │    └─ReLU: 3-69                   [32, 128, 512]            --
│    └─conv1DBatchNormRelu: 2-25         [32, 128, 512]            --
│    │    └─Conv1d: 3-70                 [32, 128, 512]            81,920
│    │    └─BatchNorm1d: 3-71            [32, 128, 512]            256
│    │    └─ReLU: 3-72                   [32, 128, 512]            --
│    └─conv1DBatchNormRelu: 2-26         [32, 128, 512]            --
│    │    └─Conv1d: 3-73                 [32, 128, 512]            81,920
│    │    └─BatchNorm1d: 3-74            [32, 128, 512]            256
│    │    └─ReLU: 3-75                   [32, 128, 512]            --
│    └─conv1DBatchNormRelu: 2-27         [32, 128, 512]            --
│    │    └─Conv1d: 3-76                 [32, 128, 512]            81,920
│    │    └─BatchNorm1d: 3-77            [32, 128, 512]            256
│    │    └─ReLU: 3-78                   [32, 128, 512]            --
│    └─conv1DBatchNormRelu: 2-28         [32, 128, 512]            --
│    │    └─Conv1d: 3-79                 [32, 128, 512]            81,920
│    │    └─BatchNorm1d: 3-80            [32, 128, 512]            256
│    │    └─ReLU: 3-81                   [32, 128, 512]            --
│    └─conv1DBatchNormRelu: 2-29         [32, 128, 512]            --
│    │    └─Conv1d: 3-82                 [32, 128, 512]            81,920
│    │    └─BatchNorm1d: 3-83            [32, 128, 512]            256
│    │    └─ReLU: 3-84                   [32, 128, 512]            --
│    └─conv1DBatchNormRelu: 2-30         [32, 128, 512]            --
│    │    └─Conv1d: 3-85                 [32, 128, 512]            81,920
│    │    └─BatchNorm1d: 3-86            [32, 128, 512]            256
│    │    └─ReLU: 3-87                   [32, 128, 512]            --
│    └─conv1DBatchNormRelu: 2-31         [32, 128, 512]            --
│    │    └─Conv1d: 3-88                 [32, 128, 512]            81,920
│    │    └─BatchNorm1d: 3-89            [32, 128, 512]            256
│    │    └─ReLU: 3-90                   [32, 128, 512]            --
│    └─conv1DBatchNormRelu: 2-32         [32, 128, 512]            --
│    │    └─Conv1d: 3-91                 [32, 128, 512]            81,920
│    │    └─BatchNorm1d: 3-92            [32, 128, 512]            256
│    │    └─ReLU: 3-93                   [32, 128, 512]            --
│    └─conv1DBatchNormRelu: 2-33         [32, 128, 512]            --
│    │    └─Conv1d: 3-94                 [32, 128, 512]            81,920
│    │    └─BatchNorm1d: 3-95            [32, 128, 512]            256
│    │    └─ReLU: 3-96                   [32, 128, 512]            --
│    └─conv1DBatchNormRelu: 2-34         [32, 128, 512]            --
│    │    └─Conv1d: 3-97                 [32, 128, 512]            81,920
│    │    └─BatchNorm1d: 3-98            [32, 128, 512]            256
│    │    └─ReLU: 3-99                   [32, 128, 512]            --
│    └─conv1DBatchNormRelu: 2-35         [32, 128, 512]            --
│    │    └─Conv1d: 3-100                [32, 128, 512]            81,920
│    │    └─BatchNorm1d: 3-101           [32, 128, 512]            256
│    │    └─ReLU: 3-102                  [32, 128, 512]            --
│    └─conv1DBatchNormRelu: 2-36         [32, 128, 512]            --
│    │    └─Conv1d: 3-103                [32, 128, 512]            81,920
│    │    └─BatchNorm1d: 3-104           [32, 128, 512]            256
│    │    └─ReLU: 3-105                  [32, 128, 512]            --
│    └─conv1DBatchNormRelu: 2-37         [32, 128, 512]            --
│    │    └─Conv1d: 3-106                [32, 128, 512]            81,920
│    │    └─BatchNorm1d: 3-107           [32, 128, 512]            256
│    │    └─ReLU: 3-108                  [32, 128, 512]            --
│    └─conv1DBatchNormRelu: 2-38         [32, 128, 512]            --
│    │    └─Conv1d: 3-109                [32, 128, 512]            81,920
│    │    └─BatchNorm1d: 3-110           [32, 128, 512]            256
│    │    └─ReLU: 3-111                  [32, 128, 512]            --
│    └─conv1DBatchNormRelu: 2-39         [32, 128, 512]            --
│    │    └─Conv1d: 3-112                [32, 128, 512]            81,920
│    │    └─BatchNorm1d: 3-113           [32, 128, 512]            256
│    │    └─ReLU: 3-114                  [32, 128, 512]            --
│    └─conv1DBatchNormRelu: 2-40         [32, 128, 512]            --
│    │    └─Conv1d: 3-115                [32, 128, 512]            81,920
│    │    └─BatchNorm1d: 3-116           [32, 128, 512]            256
│    │    └─ReLU: 3-117                  [32, 128, 512]            --
│    └─conv1DBatchNormRelu: 2-41         [32, 128, 512]            --
│    │    └─Conv1d: 3-118                [32, 128, 512]            81,920
│    │    └─BatchNorm1d: 3-119           [32, 128, 512]            256
│    │    └─ReLU: 3-120                  [32, 128, 512]            --
│    └─conv1DBatchNormRelu: 2-42         [32, 128, 512]            --
│    │    └─Conv1d: 3-121                [32, 128, 512]            81,920
│    │    └─BatchNorm1d: 3-122           [32, 128, 512]            256
│    │    └─ReLU: 3-123                  [32, 128, 512]            --
│    └─conv1DBatchNormRelu: 2-43         [32, 128, 512]            --
│    │    └─Conv1d: 3-124                [32, 128, 512]            81,920
│    │    └─BatchNorm1d: 3-125           [32, 128, 512]            256
│    │    └─ReLU: 3-126                  [32, 128, 512]            --
│    └─conv1DBatchNormRelu: 2-44         [32, 128, 512]            --
│    │    └─Conv1d: 3-127                [32, 128, 512]            81,920
│    │    └─BatchNorm1d: 3-128           [32, 128, 512]            256
│    │    └─ReLU: 3-129                  [32, 128, 512]            --
│    └─conv1DBatchNormRelu: 2-45         [32, 128, 512]            --
│    │    └─Conv1d: 3-130                [32, 128, 512]            81,920
│    │    └─BatchNorm1d: 3-131           [32, 128, 512]            256
│    │    └─ReLU: 3-132                  [32, 128, 512]            --
│    └─conv1DBatchNormRelu: 2-46         [32, 128, 512]            --
│    │    └─Conv1d: 3-133                [32, 128, 512]            81,920
│    │    └─BatchNorm1d: 3-134           [32, 128, 512]            256
│    │    └─ReLU: 3-135                  [32, 128, 512]            --
│    └─conv1DBatchNormRelu: 2-47         [32, 128, 512]            --
│    │    └─Conv1d: 3-136                [32, 128, 512]            81,920
│    │    └─BatchNorm1d: 3-137           [32, 128, 512]            256
│    │    └─ReLU: 3-138                  [32, 128, 512]            --
│    └─conv1DBatchNormRelu: 2-48         [32, 128, 512]            --
│    │    └─Conv1d: 3-139                [32, 128, 512]            81,920
│    │    └─BatchNorm1d: 3-140           [32, 128, 512]            256
│    │    └─ReLU: 3-141                  [32, 128, 512]            --
│    └─conv1DBatchNormRelu: 2-49         [32, 128, 512]            --
│    │    └─Conv1d: 3-142                [32, 128, 512]            81,920
│    │    └─BatchNorm1d: 3-143           [32, 128, 512]            256
│    │    └─ReLU: 3-144                  [32, 128, 512]            --
│    └─conv1DBatchNormRelu: 2-50         [32, 128, 512]            --
│    │    └─Conv1d: 3-145                [32, 128, 512]            81,920
│    │    └─BatchNorm1d: 3-146           [32, 128, 512]            256
│    │    └─ReLU: 3-147                  [32, 128, 512]            --
│    └─conv1DBatchNormRelu: 2-51         [32, 128, 512]            --
│    │    └─Conv1d: 3-148                [32, 128, 512]            81,920
│    │    └─BatchNorm1d: 3-149           [32, 128, 512]            256
│    │    └─ReLU: 3-150                  [32, 128, 512]            --
│    └─conv1DBatchNormRelu: 2-52         [32, 128, 512]            --
│    │    └─Conv1d: 3-151                [32, 128, 512]            81,920
│    │    └─BatchNorm1d: 3-152           [32, 128, 512]            256
│    │    └─ReLU: 3-153                  [32, 128, 512]            --
│    └─conv1DBatchNormRelu: 2-53         [32, 128, 512]            --
│    │    └─Conv1d: 3-154                [32, 128, 512]            81,920
│    │    └─BatchNorm1d: 3-155           [32, 128, 512]            256
│    │    └─ReLU: 3-156                  [32, 128, 512]            --
│    └─conv1DBatchNormRelu: 2-54         [32, 128, 512]            --
│    │    └─Conv1d: 3-157                [32, 128, 512]            81,920
│    │    └─BatchNorm1d: 3-158           [32, 128, 512]            256
│    │    └─ReLU: 3-159                  [32, 128, 512]            --
│    └─conv1DBatchNormRelu: 2-55         [32, 128, 512]            --
│    │    └─Conv1d: 3-160                [32, 128, 512]            81,920
│    │    └─BatchNorm1d: 3-161           [32, 128, 512]            256
│    │    └─ReLU: 3-162                  [32, 128, 512]            --
│    └─conv1DBatchNormRelu: 2-56         [32, 128, 512]            --
│    │    └─Conv1d: 3-163                [32, 128, 512]            81,920
│    │    └─BatchNorm1d: 3-164           [32, 128, 512]            256
│    │    └─ReLU: 3-165                  [32, 128, 512]            --
│    └─conv1DBatchNormRelu: 2-57         [32, 128, 512]            --
│    │    └─Conv1d: 3-166                [32, 128, 512]            81,920
│    │    └─BatchNorm1d: 3-167           [32, 128, 512]            256
│    │    └─ReLU: 3-168                  [32, 128, 512]            --
│    └─conv1DBatchNormRelu: 2-58         [32, 128, 512]            --
│    │    └─Conv1d: 3-169                [32, 128, 512]            81,920
│    │    └─BatchNorm1d: 3-170           [32, 128, 512]            256
│    │    └─ReLU: 3-171                  [32, 128, 512]            --
│    └─conv1DBatchNormRelu: 2-59         [32, 128, 512]            --
│    │    └─Conv1d: 3-172                [32, 128, 512]            81,920
│    │    └─BatchNorm1d: 3-173           [32, 128, 512]            256
│    │    └─ReLU: 3-174                  [32, 128, 512]            --
│    └─conv1DBatchNormRelu: 2-60         [32, 128, 512]            --
│    │    └─Conv1d: 3-175                [32, 128, 512]            81,920
│    │    └─BatchNorm1d: 3-176           [32, 128, 512]            256
│    │    └─ReLU: 3-177                  [32, 128, 512]            --
│    └─conv1DBatchNormRelu: 2-61         [32, 128, 512]            --
│    │    └─Conv1d: 3-178                [32, 128, 512]            81,920
│    │    └─BatchNorm1d: 3-179           [32, 128, 512]            256
│    │    └─ReLU: 3-180                  [32, 128, 512]            --
│    └─conv1DBatchNormRelu: 2-62         [32, 128, 512]            --
│    │    └─Conv1d: 3-181                [32, 128, 512]            81,920
│    │    └─BatchNorm1d: 3-182           [32, 128, 512]            256
│    │    └─ReLU: 3-183                  [32, 128, 512]            --
│    └─conv1DBatchNormRelu: 2-63         [32, 128, 512]            --
│    │    └─Conv1d: 3-184                [32, 128, 512]            81,920
│    │    └─BatchNorm1d: 3-185           [32, 128, 512]            256
│    │    └─ReLU: 3-186                  [32, 128, 512]            --
│    └─conv1DBatchNorm: 2-64             [32, 128, 512]            --
│    │    └─Conv1d: 3-187                [32, 128, 512]            81,920
│    │    └─BatchNorm1d: 3-188           [32, 128, 512]            256
│    └─Hardswish: 2-65                   [32, 128, 512]            --
│    └─scSE: 2-66                        [32, 128, 512]            --
│    │    └─AdaptiveAvgPool1d: 3-189     [32, 128, 1]              --
│    │    └─Linear: 3-190                [32, 8]                   1,024
│    │    └─Linear: 3-191                [32, 128]                 1,024
│    │    └─Conv1d: 3-192                [32, 1, 512]              129
│    └─conv1DBatchNorm: 2-67             [32, 1, 508]              --
│    │    └─Conv1d: 3-193                [32, 1, 508]              640
│    │    └─BatchNorm1d: 3-194           [32, 1, 508]              2
==========================================================================================
Total params: 5,021,213
Trainable params: 5,021,213
Non-trainable params: 0
Total mult-adds (G): 81.94
==========================================================================================
Input size (MB): 0.07
Forward/backward pass size (MB): 2081.62
Params size (MB): 20.08
Estimated Total Size (MB): 2101.77
…
