Warning: no access to tty (Bad file descriptor).
Thus no job control in this shell.
[2021/07/11 17:27:35] loading pickle data
[5000000, 500000]
----------------------------------------------------------------
        Layer (type)               Output Shape         Param #
================================================================
         Embedding-1               [-1, 512, 5]              25
            Conv1d-2             [-1, 128, 512]           3,200
       BatchNorm1d-3             [-1, 128, 512]             256
   conv1DBatchNorm-4             [-1, 128, 512]               0
         Hardswish-5             [-1, 128, 512]               0
 AdaptiveAvgPool1d-6               [-1, 128, 1]               0
            Linear-7                   [-1, 16]           2,048
            Linear-8                  [-1, 128]           2,048
           Sigmoid-9                  [-1, 128]               0
           Conv1d-10               [-1, 1, 512]             129
          Sigmoid-11               [-1, 1, 512]               0
             scSE-12             [-1, 128, 512]               0
           Conv1d-13             [-1, 128, 512]          81,920
      BatchNorm1d-14             [-1, 128, 512]             256
             ReLU-15             [-1, 128, 512]               0
conv1DBatchNormRelu-16             [-1, 128, 512]               0
           Conv1d-17             [-1, 128, 512]          81,920
      BatchNorm1d-18             [-1, 128, 512]             256
             ReLU-19             [-1, 128, 512]               0
conv1DBatchNormRelu-20             [-1, 128, 512]               0
           Conv1d-21             [-1, 128, 512]          81,920
      BatchNorm1d-22             [-1, 128, 512]             256
             ReLU-23             [-1, 128, 512]               0
conv1DBatchNormRelu-24             [-1, 128, 512]               0
           Conv1d-25             [-1, 128, 512]          81,920
      BatchNorm1d-26             [-1, 128, 512]             256
             ReLU-27             [-1, 128, 512]               0
conv1DBatchNormRelu-28             [-1, 128, 512]               0
           Conv1d-29             [-1, 128, 512]          81,920
      BatchNorm1d-30             [-1, 128, 512]             256
             ReLU-31             [-1, 128, 512]               0
conv1DBatchNormRelu-32             [-1, 128, 512]               0
           Conv1d-33             [-1, 128, 512]          81,920
      BatchNorm1d-34             [-1, 128, 512]             256
             ReLU-35             [-1, 128, 512]               0
conv1DBatchNormRelu-36             [-1, 128, 512]               0
           Conv1d-37             [-1, 128, 512]          81,920
      BatchNorm1d-38             [-1, 128, 512]             256
             ReLU-39             [-1, 128, 512]               0
conv1DBatchNormRelu-40             [-1, 128, 512]               0
           Conv1d-41             [-1, 128, 512]          81,920
      BatchNorm1d-42             [-1, 128, 512]             256
             ReLU-43             [-1, 128, 512]               0
conv1DBatchNormRelu-44             [-1, 128, 512]               0
           Conv1d-45             [-1, 128, 512]          81,920
      BatchNorm1d-46             [-1, 128, 512]             256
             ReLU-47             [-1, 128, 512]               0
conv1DBatchNormRelu-48             [-1, 128, 512]               0
           Conv1d-49             [-1, 128, 512]          81,920
      BatchNorm1d-50             [-1, 128, 512]             256
             ReLU-51             [-1, 128, 512]               0
conv1DBatchNormRelu-52             [-1, 128, 512]               0
           Conv1d-53             [-1, 128, 512]          81,920
      BatchNorm1d-54             [-1, 128, 512]             256
             ReLU-55             [-1, 128, 512]               0
conv1DBatchNormRelu-56             [-1, 128, 512]               0
           Conv1d-57             [-1, 128, 512]          81,920
      BatchNorm1d-58             [-1, 128, 512]             256
             ReLU-59             [-1, 128, 512]               0
conv1DBatchNormRelu-60             [-1, 128, 512]               0
           Conv1d-61             [-1, 128, 512]          81,920
      BatchNorm1d-62             [-1, 128, 512]             256
             ReLU-63             [-1, 128, 512]               0
conv1DBatchNormRelu-64             [-1, 128, 512]               0
           Conv1d-65             [-1, 128, 512]          81,920
      BatchNorm1d-66             [-1, 128, 512]             256
             ReLU-67             [-1, 128, 512]               0
conv1DBatchNormRelu-68             [-1, 128, 512]               0
           Conv1d-69             [-1, 128, 512]          81,920
      BatchNorm1d-70             [-1, 128, 512]             256
             ReLU-71             [-1, 128, 512]               0
conv1DBatchNormRelu-72             [-1, 128, 512]               0
           Conv1d-73             [-1, 128, 512]          81,920
      BatchNorm1d-74             [-1, 128, 512]             256
             ReLU-75             [-1, 128, 512]               0
conv1DBatchNormRelu-76             [-1, 128, 512]               0
           Conv1d-77             [-1, 128, 512]          81,920
      BatchNorm1d-78             [-1, 128, 512]             256
             ReLU-79             [-1, 128, 512]               0
conv1DBatchNormRelu-80             [-1, 128, 512]               0
           Conv1d-81             [-1, 128, 512]          81,920
      BatchNorm1d-82             [-1, 128, 512]             256
             ReLU-83             [-1, 128, 512]               0
conv1DBatchNormRelu-84             [-1, 128, 512]               0
           Conv1d-85             [-1, 128, 512]          81,920
      BatchNorm1d-86             [-1, 128, 512]             256
             ReLU-87             [-1, 128, 512]               0
conv1DBatchNormRelu-88             [-1, 128, 512]               0
           Conv1d-89             [-1, 128, 512]          81,920
      BatchNorm1d-90             [-1, 128, 512]             256
             ReLU-91             [-1, 128, 512]               0
conv1DBatchNormRelu-92             [-1, 128, 512]               0
           Conv1d-93             [-1, 128, 512]          81,920
      BatchNorm1d-94             [-1, 128, 512]             256
             ReLU-95             [-1, 128, 512]               0
conv1DBatchNormRelu-96             [-1, 128, 512]               0
           Conv1d-97             [-1, 128, 512]          81,920
      BatchNorm1d-98             [-1, 128, 512]             256
             ReLU-99             [-1, 128, 512]               0
conv1DBatchNormRelu-100             [-1, 128, 512]               0
          Conv1d-101             [-1, 128, 512]          81,920
     BatchNorm1d-102             [-1, 128, 512]             256
            ReLU-103             [-1, 128, 512]               0
conv1DBatchNormRelu-104             [-1, 128, 512]               0
          Conv1d-105             [-1, 128, 512]          81,920
     BatchNorm1d-106             [-1, 128, 512]             256
            ReLU-107             [-1, 128, 512]               0
conv1DBatchNormRelu-108             [-1, 128, 512]               0
          Conv1d-109             [-1, 128, 512]          81,920
     BatchNorm1d-110             [-1, 128, 512]             256
            ReLU-111             [-1, 128, 512]               0
conv1DBatchNormRelu-112             [-1, 128, 512]               0
          Conv1d-113             [-1, 128, 512]          81,920
     BatchNorm1d-114             [-1, 128, 512]             256
            ReLU-115             [-1, 128, 512]               0
conv1DBatchNormRelu-116             [-1, 128, 512]               0
          Conv1d-117             [-1, 128, 512]          81,920
     BatchNorm1d-118             [-1, 128, 512]             256
            ReLU-119             [-1, 128, 512]               0
conv1DBatchNormRelu-120             [-1, 128, 512]               0
          Conv1d-121             [-1, 128, 512]          81,920
     BatchNorm1d-122             [-1, 128, 512]             256
            ReLU-123             [-1, 128, 512]               0
conv1DBatchNormRelu-124             [-1, 128, 512]               0
          Conv1d-125             [-1, 128, 512]          81,920
     BatchNorm1d-126             [-1, 128, 512]             256
            ReLU-127             [-1, 128, 512]               0
conv1DBatchNormRelu-128             [-1, 128, 512]               0
          Conv1d-129             [-1, 128, 512]          81,920
     BatchNorm1d-130             [-1, 128, 512]             256
            ReLU-131             [-1, 128, 512]               0
conv1DBatchNormRelu-132             [-1, 128, 512]               0
          Conv1d-133             [-1, 128, 512]          81,920
     BatchNorm1d-134             [-1, 128, 512]             256
            ReLU-135             [-1, 128, 512]               0
conv1DBatchNormRelu-136             [-1, 128, 512]               0
          Conv1d-137             [-1, 128, 512]          81,920
     BatchNorm1d-138             [-1, 128, 512]             256
            ReLU-139             [-1, 128, 512]               0
conv1DBatchNormRelu-140             [-1, 128, 512]               0
          Conv1d-141             [-1, 128, 512]          81,920
     BatchNorm1d-142             [-1, 128, 512]             256
            ReLU-143             [-1, 128, 512]               0
conv1DBatchNormRelu-144             [-1, 128, 512]               0
          Conv1d-145             [-1, 128, 512]          81,920
     BatchNorm1d-146             [-1, 128, 512]             256
            ReLU-147             [-1, 128, 512]               0
conv1DBatchNormRelu-148             [-1, 128, 512]               0
          Conv1d-149             [-1, 128, 512]          81,920
     BatchNorm1d-150             [-1, 128, 512]             256
            ReLU-151             [-1, 128, 512]               0
conv1DBatchNormRelu-152             [-1, 128, 512]               0
          Conv1d-153             [-1, 128, 512]          81,920
     BatchNorm1d-154             [-1, 128, 512]             256
            ReLU-155             [-1, 128, 512]               0
conv1DBatchNormRelu-156             [-1, 128, 512]               0
          Conv1d-157             [-1, 128, 512]          81,920
     BatchNorm1d-158             [-1, 128, 512]             256
            ReLU-159             [-1, 128, 512]               0
conv1DBatchNormRelu-160             [-1, 128, 512]               0
          Conv1d-161             [-1, 128, 512]          81,920
     BatchNorm1d-162             [-1, 128, 512]             256
            ReLU-163             [-1, 128, 512]               0
conv1DBatchNormRelu-164             [-1, 128, 512]               0
          Conv1d-165             [-1, 128, 512]          81,920
     BatchNorm1d-166             [-1, 128, 512]             256
            ReLU-167             [-1, 128, 512]               0
conv1DBatchNormRelu-168             [-1, 128, 512]               0
          Conv1d-169             [-1, 128, 512]          81,920
     BatchNorm1d-170             [-1, 128, 512]             256
            ReLU-171             [-1, 128, 512]               0
conv1DBatchNormRelu-172             [-1, 128, 512]               0
          Conv1d-173             [-1, 128, 512]          81,920
     BatchNorm1d-174             [-1, 128, 512]             256
            ReLU-175             [-1, 128, 512]               0
conv1DBatchNormRelu-176             [-1, 128, 512]               0
          Conv1d-177             [-1, 128, 512]          81,920
     BatchNorm1d-178             [-1, 128, 512]             256
            ReLU-179             [-1, 128, 512]               0
conv1DBatchNormRelu-180             [-1, 128, 512]               0
          Conv1d-181             [-1, 128, 512]          81,920
     BatchNorm1d-182             [-1, 128, 512]             256
            ReLU-183             [-1, 128, 512]               0
conv1DBatchNormRelu-184             [-1, 128, 512]               0
          Conv1d-185             [-1, 128, 512]          81,920
     BatchNorm1d-186             [-1, 128, 512]             256
            ReLU-187             [-1, 128, 512]               0
conv1DBatchNormRelu-188             [-1, 128, 512]               0
          Conv1d-189             [-1, 128, 512]          81,920
     BatchNorm1d-190             [-1, 128, 512]             256
            ReLU-191             [-1, 128, 512]               0
conv1DBatchNormRelu-192             [-1, 128, 512]               0
          Conv1d-193             [-1, 128, 512]          81,920
     BatchNorm1d-194             [-1, 128, 512]             256
            ReLU-195             [-1, 128, 512]               0
conv1DBatchNormRelu-196             [-1, 128, 512]               0
          Conv1d-197             [-1, 128, 512]          81,920
     BatchNorm1d-198             [-1, 128, 512]             256
            ReLU-199             [-1, 128, 512]               0
conv1DBatchNormRelu-200             [-1, 128, 512]               0
          Conv1d-201             [-1, 128, 512]          81,920
     BatchNorm1d-202             [-1, 128, 512]             256
            ReLU-203             [-1, 128, 512]               0
conv1DBatchNormRelu-204             [-1, 128, 512]               0
          Conv1d-205             [-1, 128, 512]          81,920
     BatchNorm1d-206             [-1, 128, 512]             256
            ReLU-207             [-1, 128, 512]               0
conv1DBatchNormRelu-208             [-1, 128, 512]               0
          Conv1d-209             [-1, 128, 512]          81,920
     BatchNorm1d-210             [-1, 128, 512]             256
            ReLU-211             [-1, 128, 512]               0
conv1DBatchNormRelu-212             [-1, 128, 512]               0
          Conv1d-213             [-1, 128, 512]          81,920
     BatchNorm1d-214             [-1, 128, 512]             256
            ReLU-215             [-1, 128, 512]               0
conv1DBatchNormRelu-216             [-1, 128, 512]               0
          Conv1d-217             [-1, 128, 512]          81,920
     BatchNorm1d-218             [-1, 128, 512]             256
            ReLU-219             [-1, 128, 512]               0
conv1DBatchNormRelu-220             [-1, 128, 512]               0
          Conv1d-221             [-1, 128, 512]          81,920
     BatchNorm1d-222             [-1, 128, 512]             256
            ReLU-223             [-1, 128, 512]               0
conv1DBatchNormRelu-224             [-1, 128, 512]               0
          Conv1d-225             [-1, 128, 512]          81,920
     BatchNorm1d-226             [-1, 128, 512]             256
            ReLU-227             [-1, 128, 512]               0
conv1DBatchNormRelu-228             [-1, 128, 512]               0
          Conv1d-229             [-1, 128, 512]          81,920
     BatchNorm1d-230             [-1, 128, 512]             256
            ReLU-231             [-1, 128, 512]               0
conv1DBatchNormRelu-232             [-1, 128, 512]               0
          Conv1d-233             [-1, 128, 512]          81,920
     BatchNorm1d-234             [-1, 128, 512]             256
            ReLU-235             [-1, 128, 512]               0
conv1DBatchNormRelu-236             [-1, 128, 512]               0
          Conv1d-237             [-1, 128, 512]          81,920
     BatchNorm1d-238             [-1, 128, 512]             256
            ReLU-239             [-1, 128, 512]               0
conv1DBatchNormRelu-240             [-1, 128, 512]               0
          Conv1d-241             [-1, 128, 512]          81,920
     BatchNorm1d-242             [-1, 128, 512]             256
            ReLU-243             [-1, 128, 512]               0
conv1DBatchNormRelu-244             [-1, 128, 512]               0
          Conv1d-245             [-1, 128, 512]          81,920
     BatchNorm1d-246             [-1, 128, 512]             256
            ReLU-247             [-1, 128, 512]               0
conv1DBatchNormRelu-248             [-1, 128, 512]               0
          Conv1d-249             [-1, 128, 512]          81,920
     BatchNorm1d-250             [-1, 128, 512]             256
            ReLU-251             [-1, 128, 512]               0
conv1DBatchNormRelu-252             [-1, 128, 512]               0
          Conv1d-253             [-1, 128, 512]          81,920
     BatchNorm1d-254             [-1, 128, 512]             256
 conv1DBatchNorm-255             [-1, 128, 512]               0
       Hardswish-256             [-1, 128, 512]               0
AdaptiveAvgPool1d-257               [-1, 128, 1]               0
          Linear-258                   [-1, 16]           2,048
          Linear-259                  [-1, 128]           2,048
         Sigmoid-260                  [-1, 128]               0
          Conv1d-261               [-1, 1, 512]             129
         Sigmoid-262               [-1, 1, 512]               0
            scSE-263             [-1, 128, 512]               0
          Conv1d-264               [-1, 1, 508]             640
     BatchNorm1d-265               [-1, 1, 508]               2
 conv1DBatchNorm-266               [-1, 1, 508]               0
================================================================
Total params: 5,025,309
Trainable params: 5,025,309
Non-trainable params: 0
----------------------------------------------------------------
Input size (MB): 0.00
Forward/backward pass size (MB): 125.05
Params size (MB): 19.17
Estimated Total Size (MB): 144.22
----------------------------------------------------------------
Adam (
Parameter Group 0
…
