Warning: no access to tty (Bad file descriptor).
Thus no job control in this shell.
[2021/06/24 19:22:57] loading pickle data
----------------------------------------------------------------
        Layer (type)               Output Shape         Param #
================================================================
         Embedding-1               [-1, 512, 5]              25
            Conv1d-2              [-1, 64, 512]           1,600
       BatchNorm1d-3              [-1, 64, 512]             128
              ReLU-4              [-1, 64, 512]               0
conv1DBatchNormRelu-5              [-1, 64, 512]               0
            Conv1d-6              [-1, 64, 512]          20,480
       BatchNorm1d-7              [-1, 64, 512]             128
              ReLU-8              [-1, 64, 512]               0
conv1DBatchNormRelu-9              [-1, 64, 512]               0
           Conv1d-10              [-1, 64, 512]          20,480
      BatchNorm1d-11              [-1, 64, 512]             128
             ReLU-12              [-1, 64, 512]               0
conv1DBatchNormRelu-13              [-1, 64, 512]               0
           Conv1d-14              [-1, 64, 512]          20,480
      BatchNorm1d-15              [-1, 64, 512]             128
             ReLU-16              [-1, 64, 512]               0
conv1DBatchNormRelu-17              [-1, 64, 512]               0
           Conv1d-18              [-1, 64, 512]          20,480
      BatchNorm1d-19              [-1, 64, 512]             128
             ReLU-20              [-1, 64, 512]               0
conv1DBatchNormRelu-21              [-1, 64, 512]               0
           Conv1d-22              [-1, 64, 512]          20,480
      BatchNorm1d-23              [-1, 64, 512]             128
             ReLU-24              [-1, 64, 512]               0
conv1DBatchNormRelu-25              [-1, 64, 512]               0
           Conv1d-26              [-1, 64, 512]          20,480
      BatchNorm1d-27              [-1, 64, 512]             128
             ReLU-28              [-1, 64, 512]               0
conv1DBatchNormRelu-29              [-1, 64, 512]               0
           Conv1d-30              [-1, 64, 512]          20,480
      BatchNorm1d-31              [-1, 64, 512]             128
             ReLU-32              [-1, 64, 512]               0
conv1DBatchNormRelu-33              [-1, 64, 512]               0
           Conv1d-34              [-1, 64, 512]          20,480
      BatchNorm1d-35              [-1, 64, 512]             128
             ReLU-36              [-1, 64, 512]               0
conv1DBatchNormRelu-37              [-1, 64, 512]               0
           Conv1d-38              [-1, 64, 512]          20,480
      BatchNorm1d-39              [-1, 64, 512]             128
             ReLU-40              [-1, 64, 512]               0
conv1DBatchNormRelu-41              [-1, 64, 512]               0
           Conv1d-42              [-1, 64, 512]          20,480
      BatchNorm1d-43              [-1, 64, 512]             128
             ReLU-44              [-1, 64, 512]               0
conv1DBatchNormRelu-45              [-1, 64, 512]               0
           Conv1d-46              [-1, 64, 512]          20,480
      BatchNorm1d-47              [-1, 64, 512]             128
             ReLU-48              [-1, 64, 512]               0
conv1DBatchNormRelu-49              [-1, 64, 512]               0
           Conv1d-50              [-1, 64, 512]          20,480
      BatchNorm1d-51              [-1, 64, 512]             128
             ReLU-52              [-1, 64, 512]               0
conv1DBatchNormRelu-53              [-1, 64, 512]               0
           Conv1d-54              [-1, 64, 512]          20,480
      BatchNorm1d-55              [-1, 64, 512]             128
             ReLU-56              [-1, 64, 512]               0
conv1DBatchNormRelu-57              [-1, 64, 512]               0
           Conv1d-58              [-1, 64, 512]          20,480
      BatchNorm1d-59              [-1, 64, 512]             128
             ReLU-60              [-1, 64, 512]               0
conv1DBatchNormRelu-61              [-1, 64, 512]               0
           Conv1d-62              [-1, 64, 512]          20,480
      BatchNorm1d-63              [-1, 64, 512]             128
             ReLU-64              [-1, 64, 512]               0
conv1DBatchNormRelu-65              [-1, 64, 512]               0
           Conv1d-66               [-1, 1, 508]             321
================================================================
Total params: 311,194
Trainable params: 311,194
Non-trainable params: 0
----------------------------------------------------------------
Input size (MB): 0.00
Forward/backward pass size (MB): 16.02
Params size (MB): 1.19
Estimated Total Size (MB): 17.21
----------------------------------------------------------------
Epoch 1/20
train Loss:2.5845 Timer:438.4706
…
