Warning: no access to tty (Bad file descriptor).
Thus no job control in this shell.
[2021/06/24 22:25:08] loading pickle data
----------------------------------------------------------------
        Layer (type)               Output Shape         Param #
================================================================
         Embedding-1               [-1, 512, 5]              25
            Conv1d-2              [-1, 64, 512]           1,600
       BatchNorm1d-3              [-1, 64, 512]             128
   conv1DBatchNorm-4              [-1, 64, 512]               0
         Hardswish-5              [-1, 64, 512]               0
            Conv1d-6              [-1, 64, 512]          20,480
       BatchNorm1d-7              [-1, 64, 512]             128
   conv1DBatchNorm-8              [-1, 64, 512]               0
         Hardswish-9              [-1, 64, 512]               0
           Conv1d-10              [-1, 64, 512]          20,480
      BatchNorm1d-11              [-1, 64, 512]             128
  conv1DBatchNorm-12              [-1, 64, 512]               0
        Hardswish-13              [-1, 64, 512]               0
           Conv1d-14              [-1, 64, 512]          20,480
      BatchNorm1d-15              [-1, 64, 512]             128
  conv1DBatchNorm-16              [-1, 64, 512]               0
        Hardswish-17              [-1, 64, 512]               0
           Conv1d-18              [-1, 64, 512]          20,480
      BatchNorm1d-19              [-1, 64, 512]             128
  conv1DBatchNorm-20              [-1, 64, 512]               0
        Hardswish-21              [-1, 64, 512]               0
           Conv1d-22              [-1, 64, 512]          20,480
      BatchNorm1d-23              [-1, 64, 512]             128
  conv1DBatchNorm-24              [-1, 64, 512]               0
        Hardswish-25              [-1, 64, 512]               0
           Conv1d-26              [-1, 64, 512]          20,480
      BatchNorm1d-27              [-1, 64, 512]             128
  conv1DBatchNorm-28              [-1, 64, 512]               0
        Hardswish-29              [-1, 64, 512]               0
           Conv1d-30              [-1, 64, 512]          20,480
      BatchNorm1d-31              [-1, 64, 512]             128
  conv1DBatchNorm-32              [-1, 64, 512]               0
        Hardswish-33              [-1, 64, 512]               0
           Conv1d-34              [-1, 64, 512]          20,480
      BatchNorm1d-35              [-1, 64, 512]             128
  conv1DBatchNorm-36              [-1, 64, 512]               0
        Hardswish-37              [-1, 64, 512]               0
           Conv1d-38              [-1, 64, 512]          20,480
      BatchNorm1d-39              [-1, 64, 512]             128
  conv1DBatchNorm-40              [-1, 64, 512]               0
        Hardswish-41              [-1, 64, 512]               0
           Conv1d-42              [-1, 64, 512]          20,480
      BatchNorm1d-43              [-1, 64, 512]             128
  conv1DBatchNorm-44              [-1, 64, 512]               0
        Hardswish-45              [-1, 64, 512]               0
           Conv1d-46              [-1, 64, 512]          20,480
      BatchNorm1d-47              [-1, 64, 512]             128
  conv1DBatchNorm-48              [-1, 64, 512]               0
        Hardswish-49              [-1, 64, 512]               0
           Conv1d-50              [-1, 64, 512]          20,480
      BatchNorm1d-51              [-1, 64, 512]             128
  conv1DBatchNorm-52              [-1, 64, 512]               0
        Hardswish-53              [-1, 64, 512]               0
           Conv1d-54              [-1, 64, 512]          20,480
      BatchNorm1d-55              [-1, 64, 512]             128
  conv1DBatchNorm-56              [-1, 64, 512]               0
        Hardswish-57              [-1, 64, 512]               0
           Conv1d-58              [-1, 64, 512]          20,480
      BatchNorm1d-59              [-1, 64, 512]             128
  conv1DBatchNorm-60              [-1, 64, 512]               0
        Hardswish-61              [-1, 64, 512]               0
           Conv1d-62              [-1, 64, 512]          20,480
      BatchNorm1d-63              [-1, 64, 512]             128
  conv1DBatchNorm-64              [-1, 64, 512]               0
        Hardswish-65              [-1, 64, 512]               0
           Conv1d-66               [-1, 1, 508]             321
================================================================
Total params: 311,194
Trainable params: 311,194
Non-trainable params: 0
----------------------------------------------------------------
Input size (MB): 0.00
Forward/backward pass size (MB): 16.02
Params size (MB): 1.19
Estimated Total Size (MB): 17.21
----------------------------------------------------------------
Epoch 1/20
train Loss:2.5622 Timer:434.4471
…
