Warning: no access to tty (Bad file descriptor).
Thus no job control in this shell.
[2021/06/24 16:10:41] loading pickle data
----------------------------------------------------------------
        Layer (type)               Output Shape         Param #
================================================================
         Embedding-1               [-1, 512, 5]              25
            Conv1d-2              [-1, 64, 512]           1,600
       BatchNorm1d-3              [-1, 64, 512]             128
              ReLU-4              [-1, 64, 512]               0
conv1DBatchNormRelu-5              [-1, 64, 512]               0
 AdaptiveAvgPool1d-6                [-1, 64, 1]               0
            Linear-7                    [-1, 8]             512
            Linear-8                   [-1, 64]             512
           Sigmoid-9                   [-1, 64]               0
           Conv1d-10               [-1, 1, 512]              65
          Sigmoid-11               [-1, 1, 512]               0
             scSE-12              [-1, 64, 512]               0
           Conv1d-13              [-1, 64, 512]          20,480
      BatchNorm1d-14              [-1, 64, 512]             128
             ReLU-15              [-1, 64, 512]               0
conv1DBatchNormRelu-16              [-1, 64, 512]               0
           Conv1d-17              [-1, 64, 512]          20,480
      BatchNorm1d-18              [-1, 64, 512]             128
             ReLU-19              [-1, 64, 512]               0
conv1DBatchNormRelu-20              [-1, 64, 512]               0
           Conv1d-21              [-1, 64, 512]          20,480
      BatchNorm1d-22              [-1, 64, 512]             128
             ReLU-23              [-1, 64, 512]               0
conv1DBatchNormRelu-24              [-1, 64, 512]               0
           Conv1d-25              [-1, 64, 512]          20,480
      BatchNorm1d-26              [-1, 64, 512]             128
             ReLU-27              [-1, 64, 512]               0
conv1DBatchNormRelu-28              [-1, 64, 512]               0
           Conv1d-29              [-1, 64, 512]          20,480
      BatchNorm1d-30              [-1, 64, 512]             128
             ReLU-31              [-1, 64, 512]               0
conv1DBatchNormRelu-32              [-1, 64, 512]               0
           Conv1d-33              [-1, 64, 512]          20,480
      BatchNorm1d-34              [-1, 64, 512]             128
             ReLU-35              [-1, 64, 512]               0
conv1DBatchNormRelu-36              [-1, 64, 512]               0
           Conv1d-37              [-1, 64, 512]          20,480
      BatchNorm1d-38              [-1, 64, 512]             128
             ReLU-39              [-1, 64, 512]               0
conv1DBatchNormRelu-40              [-1, 64, 512]               0
           Conv1d-41              [-1, 64, 512]          20,480
      BatchNorm1d-42              [-1, 64, 512]             128
             ReLU-43              [-1, 64, 512]               0
conv1DBatchNormRelu-44              [-1, 64, 512]               0
           Conv1d-45              [-1, 64, 512]          20,480
      BatchNorm1d-46              [-1, 64, 512]             128
             ReLU-47              [-1, 64, 512]               0
conv1DBatchNormRelu-48              [-1, 64, 512]               0
           Conv1d-49              [-1, 64, 512]          20,480
      BatchNorm1d-50              [-1, 64, 512]             128
             ReLU-51              [-1, 64, 512]               0
conv1DBatchNormRelu-52              [-1, 64, 512]               0
           Conv1d-53              [-1, 64, 512]          20,480
      BatchNorm1d-54              [-1, 64, 512]             128
             ReLU-55              [-1, 64, 512]               0
conv1DBatchNormRelu-56              [-1, 64, 512]               0
           Conv1d-57              [-1, 64, 512]          20,480
      BatchNorm1d-58              [-1, 64, 512]             128
             ReLU-59              [-1, 64, 512]               0
conv1DBatchNormRelu-60              [-1, 64, 512]               0
           Conv1d-61              [-1, 64, 512]          20,480
      BatchNorm1d-62              [-1, 64, 512]             128
             ReLU-63              [-1, 64, 512]               0
conv1DBatchNormRelu-64              [-1, 64, 512]               0
           Conv1d-65              [-1, 64, 512]          20,480
      BatchNorm1d-66              [-1, 64, 512]             128
             ReLU-67              [-1, 64, 512]               0
conv1DBatchNormRelu-68              [-1, 64, 512]               0
           Conv1d-69              [-1, 64, 512]          20,480
      BatchNorm1d-70              [-1, 64, 512]             128
             ReLU-71              [-1, 64, 512]               0
conv1DBatchNormRelu-72              [-1, 64, 512]               0
AdaptiveAvgPool1d-73                [-1, 64, 1]               0
           Linear-74                    [-1, 8]             512
           Linear-75                   [-1, 64]             512
          Sigmoid-76                   [-1, 64]               0
           Conv1d-77               [-1, 1, 512]              65
          Sigmoid-78               [-1, 1, 512]               0
             scSE-79              [-1, 64, 512]               0
           Conv1d-80               [-1, 1, 508]             321
================================================================
Total params: 313,372
Trainable params: 313,372
Non-trainable params: 0
----------------------------------------------------------------
Input size (MB): 0.00
Forward/backward pass size (MB): 16.54
Params size (MB): 1.20
Estimated Total Size (MB): 17.74
----------------------------------------------------------------
Epoch 1/20
train Loss:2.5958 Timer:505.8437
…
