Warning: no access to tty (Bad file descriptor).
Thus no job control in this shell.
cuda:0
[2021/06/21 12:25:15] loading pickle data
==========================================================================================
Layer (type:depth-idx)                   Output Shape              Param #
==========================================================================================
dilation1                                --                        --
├─Embedding: 1-1                         [32, 512, 5]              25
├─ModuleList: 1                          --                        --
│    └─conv1DBatchNorm: 2-1              [32, 128, 512]            --
│    │    └─Conv1d: 3-1                  [32, 128, 512]            3,200
│    │    └─BatchNorm1d: 3-2             [32, 128, 512]            256
│    └─Hardswish: 2-2                    [32, 128, 512]            --
│    └─conv1DBatchNormRelu: 2-3          [32, 128, 512]            --
│    │    └─Conv1d: 3-3                  [32, 128, 512]            81,920
│    │    └─BatchNorm1d: 3-4             [32, 128, 512]            256
│    │    └─ReLU: 3-5                    [32, 128, 512]            --
│    └─conv1DBatchNormRelu: 2-4          [32, 128, 512]            --
│    │    └─Conv1d: 3-6                  [32, 128, 512]            81,920
│    │    └─BatchNorm1d: 3-7             [32, 128, 512]            256
│    │    └─ReLU: 3-8                    [32, 128, 512]            --
│    └─conv1DBatchNormRelu: 2-5          [32, 128, 512]            --
│    │    └─Conv1d: 3-9                  [32, 128, 512]            81,920
│    │    └─BatchNorm1d: 3-10            [32, 128, 512]            256
│    │    └─ReLU: 3-11                   [32, 128, 512]            --
│    └─conv1DBatchNormRelu: 2-6          [32, 128, 512]            --
│    │    └─Conv1d: 3-12                 [32, 128, 512]            81,920
│    │    └─BatchNorm1d: 3-13            [32, 128, 512]            256
│    │    └─ReLU: 3-14                   [32, 128, 512]            --
│    └─conv1DBatchNormRelu: 2-7          [32, 128, 512]            --
│    │    └─Conv1d: 3-15                 [32, 128, 512]            81,920
│    │    └─BatchNorm1d: 3-16            [32, 128, 512]            256
│    │    └─ReLU: 3-17                   [32, 128, 512]            --
│    └─conv1DBatchNormRelu: 2-8          [32, 128, 512]            --
│    │    └─Conv1d: 3-18                 [32, 128, 512]            81,920
│    │    └─BatchNorm1d: 3-19            [32, 128, 512]            256
│    │    └─ReLU: 3-20                   [32, 128, 512]            --
│    └─conv1DBatchNormRelu: 2-9          [32, 128, 512]            --
│    │    └─Conv1d: 3-21                 [32, 128, 512]            81,920
│    │    └─BatchNorm1d: 3-22            [32, 128, 512]            256
│    │    └─ReLU: 3-23                   [32, 128, 512]            --
│    └─conv1DBatchNormRelu: 2-10         [32, 128, 512]            --
│    │    └─Conv1d: 3-24                 [32, 128, 512]            81,920
│    │    └─BatchNorm1d: 3-25            [32, 128, 512]            256
│    │    └─ReLU: 3-26                   [32, 128, 512]            --
│    └─conv1DBatchNormRelu: 2-11         [32, 128, 512]            --
│    │    └─Conv1d: 3-27                 [32, 128, 512]            81,920
│    │    └─BatchNorm1d: 3-28            [32, 128, 512]            256
│    │    └─ReLU: 3-29                   [32, 128, 512]            --
│    └─conv1DBatchNormRelu: 2-12         [32, 128, 512]            --
│    │    └─Conv1d: 3-30                 [32, 128, 512]            81,920
│    │    └─BatchNorm1d: 3-31            [32, 128, 512]            256
│    │    └─ReLU: 3-32                   [32, 128, 512]            --
│    └─conv1DBatchNormRelu: 2-13         [32, 128, 512]            --
│    │    └─Conv1d: 3-33                 [32, 128, 512]            81,920
│    │    └─BatchNorm1d: 3-34            [32, 128, 512]            256
│    │    └─ReLU: 3-35                   [32, 128, 512]            --
│    └─conv1DBatchNormRelu: 2-14         [32, 128, 512]            --
│    │    └─Conv1d: 3-36                 [32, 128, 512]            81,920
│    │    └─BatchNorm1d: 3-37            [32, 128, 512]            256
│    │    └─ReLU: 3-38                   [32, 128, 512]            --
│    └─conv1DBatchNormRelu: 2-15         [32, 128, 512]            --
│    │    └─Conv1d: 3-39                 [32, 128, 512]            81,920
│    │    └─BatchNorm1d: 3-40            [32, 128, 512]            256
│    │    └─ReLU: 3-41                   [32, 128, 512]            --
│    └─conv1DBatchNormRelu: 2-16         [32, 128, 512]            --
│    │    └─Conv1d: 3-42                 [32, 128, 512]            81,920
│    │    └─BatchNorm1d: 3-43            [32, 128, 512]            256
│    │    └─ReLU: 3-44                   [32, 128, 512]            --
│    └─conv1DBatchNormRelu: 2-17         [32, 128, 512]            --
│    │    └─Conv1d: 3-45                 [32, 128, 512]            81,920
│    │    └─BatchNorm1d: 3-46            [32, 128, 512]            256
│    │    └─ReLU: 3-47                   [32, 128, 512]            --
│    └─conv1DBatchNormRelu: 2-18         [32, 128, 512]            --
│    │    └─Conv1d: 3-48                 [32, 128, 512]            81,920
│    │    └─BatchNorm1d: 3-49            [32, 128, 512]            256
│    │    └─ReLU: 3-50                   [32, 128, 512]            --
│    └─conv1DBatchNormRelu: 2-19         [32, 128, 512]            --
│    │    └─Conv1d: 3-51                 [32, 128, 512]            81,920
│    │    └─BatchNorm1d: 3-52            [32, 128, 512]            256
│    │    └─ReLU: 3-53                   [32, 128, 512]            --
│    └─conv1DBatchNormRelu: 2-20         [32, 128, 512]            --
│    │    └─Conv1d: 3-54                 [32, 128, 512]            81,920
│    │    └─BatchNorm1d: 3-55            [32, 128, 512]            256
│    │    └─ReLU: 3-56                   [32, 128, 512]            --
│    └─conv1DBatchNormRelu: 2-21         [32, 128, 512]            --
│    │    └─Conv1d: 3-57                 [32, 128, 512]            81,920
│    │    └─BatchNorm1d: 3-58            [32, 128, 512]            256
│    │    └─ReLU: 3-59                   [32, 128, 512]            --
│    └─conv1DBatchNormRelu: 2-22         [32, 128, 512]            --
│    │    └─Conv1d: 3-60                 [32, 128, 512]            81,920
│    │    └─BatchNorm1d: 3-61            [32, 128, 512]            256
│    │    └─ReLU: 3-62                   [32, 128, 512]            --
│    └─conv1DBatchNormRelu: 2-23         [32, 128, 512]            --
│    │    └─Conv1d: 3-63                 [32, 128, 512]            81,920
│    │    └─BatchNorm1d: 3-64            [32, 128, 512]            256
│    │    └─ReLU: 3-65                   [32, 128, 512]            --
│    └─conv1DBatchNormRelu: 2-24         [32, 128, 512]            --
│    │    └─Conv1d: 3-66                 [32, 128, 512]            81,920
│    │    └─BatchNorm1d: 3-67            [32, 128, 512]            256
│    │    └─ReLU: 3-68                   [32, 128, 512]            --
│    └─conv1DBatchNormRelu: 2-25         [32, 128, 512]            --
│    │    └─Conv1d: 3-69                 [32, 128, 512]            81,920
│    │    └─BatchNorm1d: 3-70            [32, 128, 512]            256
│    │    └─ReLU: 3-71                   [32, 128, 512]            --
│    └─conv1DBatchNormRelu: 2-26         [32, 128, 512]            --
│    │    └─Conv1d: 3-72                 [32, 128, 512]            81,920
│    │    └─BatchNorm1d: 3-73            [32, 128, 512]            256
│    │    └─ReLU: 3-74                   [32, 128, 512]            --
│    └─conv1DBatchNormRelu: 2-27         [32, 128, 512]            --
│    │    └─Conv1d: 3-75                 [32, 128, 512]            81,920
│    │    └─BatchNorm1d: 3-76            [32, 128, 512]            256
│    │    └─ReLU: 3-77                   [32, 128, 512]            --
│    └─conv1DBatchNormRelu: 2-28         [32, 128, 512]            --
│    │    └─Conv1d: 3-78                 [32, 128, 512]            81,920
│    │    └─BatchNorm1d: 3-79            [32, 128, 512]            256
│    │    └─ReLU: 3-80                   [32, 128, 512]            --
│    └─conv1DBatchNormRelu: 2-29         [32, 128, 512]            --
│    │    └─Conv1d: 3-81                 [32, 128, 512]            81,920
│    │    └─BatchNorm1d: 3-82            [32, 128, 512]            256
│    │    └─ReLU: 3-83                   [32, 128, 512]            --
│    └─conv1DBatchNormRelu: 2-30         [32, 128, 512]            --
│    │    └─Conv1d: 3-84                 [32, 128, 512]            81,920
│    │    └─BatchNorm1d: 3-85            [32, 128, 512]            256
│    │    └─ReLU: 3-86                   [32, 128, 512]            --
│    └─conv1DBatchNormRelu: 2-31         [32, 128, 512]            --
│    │    └─Conv1d: 3-87                 [32, 128, 512]            81,920
│    │    └─BatchNorm1d: 3-88            [32, 128, 512]            256
│    │    └─ReLU: 3-89                   [32, 128, 512]            --
│    └─conv1DBatchNormRelu: 2-32         [32, 128, 512]            --
│    │    └─Conv1d: 3-90                 [32, 128, 512]            81,920
│    │    └─BatchNorm1d: 3-91            [32, 128, 512]            256
│    │    └─ReLU: 3-92                   [32, 128, 512]            --
│    └─conv1DBatchNormRelu: 2-33         [32, 128, 512]            --
│    │    └─Conv1d: 3-93                 [32, 128, 512]            81,920
│    │    └─BatchNorm1d: 3-94            [32, 128, 512]            256
│    │    └─ReLU: 3-95                   [32, 128, 512]            --
│    └─conv1DBatchNormRelu: 2-34         [32, 128, 512]            --
│    │    └─Conv1d: 3-96                 [32, 128, 512]            81,920
│    │    └─BatchNorm1d: 3-97            [32, 128, 512]            256
│    │    └─ReLU: 3-98                   [32, 128, 512]            --
│    └─conv1DBatchNormRelu: 2-35         [32, 128, 512]            --
│    │    └─Conv1d: 3-99                 [32, 128, 512]            81,920
│    │    └─BatchNorm1d: 3-100           [32, 128, 512]            256
│    │    └─ReLU: 3-101                  [32, 128, 512]            --
│    └─conv1DBatchNormRelu: 2-36         [32, 128, 512]            --
│    │    └─Conv1d: 3-102                [32, 128, 512]            81,920
│    │    └─BatchNorm1d: 3-103           [32, 128, 512]            256
│    │    └─ReLU: 3-104                  [32, 128, 512]            --
│    └─conv1DBatchNormRelu: 2-37         [32, 128, 512]            --
│    │    └─Conv1d: 3-105                [32, 128, 512]            81,920
│    │    └─BatchNorm1d: 3-106           [32, 128, 512]            256
│    │    └─ReLU: 3-107                  [32, 128, 512]            --
│    └─conv1DBatchNormRelu: 2-38         [32, 128, 512]            --
│    │    └─Conv1d: 3-108                [32, 128, 512]            81,920
│    │    └─BatchNorm1d: 3-109           [32, 128, 512]            256
│    │    └─ReLU: 3-110                  [32, 128, 512]            --
│    └─conv1DBatchNormRelu: 2-39         [32, 128, 512]            --
│    │    └─Conv1d: 3-111                [32, 128, 512]            81,920
│    │    └─BatchNorm1d: 3-112           [32, 128, 512]            256
│    │    └─ReLU: 3-113                  [32, 128, 512]            --
│    └─conv1DBatchNormRelu: 2-40         [32, 128, 512]            --
│    │    └─Conv1d: 3-114                [32, 128, 512]            81,920
│    │    └─BatchNorm1d: 3-115           [32, 128, 512]            256
│    │    └─ReLU: 3-116                  [32, 128, 512]            --
│    └─conv1DBatchNormRelu: 2-41         [32, 128, 512]            --
│    │    └─Conv1d: 3-117                [32, 128, 512]            81,920
│    │    └─BatchNorm1d: 3-118           [32, 128, 512]            256
│    │    └─ReLU: 3-119                  [32, 128, 512]            --
│    └─conv1DBatchNormRelu: 2-42         [32, 128, 512]            --
│    │    └─Conv1d: 3-120                [32, 128, 512]            81,920
│    │    └─BatchNorm1d: 3-121           [32, 128, 512]            256
│    │    └─ReLU: 3-122                  [32, 128, 512]            --
│    └─conv1DBatchNormRelu: 2-43         [32, 128, 512]            --
│    │    └─Conv1d: 3-123                [32, 128, 512]            81,920
│    │    └─BatchNorm1d: 3-124           [32, 128, 512]            256
│    │    └─ReLU: 3-125                  [32, 128, 512]            --
│    └─conv1DBatchNormRelu: 2-44         [32, 128, 512]            --
│    │    └─Conv1d: 3-126                [32, 128, 512]            81,920
│    │    └─BatchNorm1d: 3-127           [32, 128, 512]            256
│    │    └─ReLU: 3-128                  [32, 128, 512]            --
│    └─conv1DBatchNormRelu: 2-45         [32, 128, 512]            --
│    │    └─Conv1d: 3-129                [32, 128, 512]            81,920
│    │    └─BatchNorm1d: 3-130           [32, 128, 512]            256
│    │    └─ReLU: 3-131                  [32, 128, 512]            --
│    └─conv1DBatchNormRelu: 2-46         [32, 128, 512]            --
│    │    └─Conv1d: 3-132                [32, 128, 512]            81,920
│    │    └─BatchNorm1d: 3-133           [32, 128, 512]            256
│    │    └─ReLU: 3-134                  [32, 128, 512]            --
│    └─conv1DBatchNormRelu: 2-47         [32, 128, 512]            --
│    │    └─Conv1d: 3-135                [32, 128, 512]            81,920
│    │    └─BatchNorm1d: 3-136           [32, 128, 512]            256
│    │    └─ReLU: 3-137                  [32, 128, 512]            --
│    └─conv1DBatchNormRelu: 2-48         [32, 128, 512]            --
│    │    └─Conv1d: 3-138                [32, 128, 512]            81,920
│    │    └─BatchNorm1d: 3-139           [32, 128, 512]            256
│    │    └─ReLU: 3-140                  [32, 128, 512]            --
│    └─conv1DBatchNormRelu: 2-49         [32, 128, 512]            --
│    │    └─Conv1d: 3-141                [32, 128, 512]            81,920
│    │    └─BatchNorm1d: 3-142           [32, 128, 512]            256
│    │    └─ReLU: 3-143                  [32, 128, 512]            --
│    └─conv1DBatchNormRelu: 2-50         [32, 128, 512]            --
│    │    └─Conv1d: 3-144                [32, 128, 512]            81,920
│    │    └─BatchNorm1d: 3-145           [32, 128, 512]            256
│    │    └─ReLU: 3-146                  [32, 128, 512]            --
│    └─conv1DBatchNormRelu: 2-51         [32, 128, 512]            --
│    │    └─Conv1d: 3-147                [32, 128, 512]            81,920
│    │    └─BatchNorm1d: 3-148           [32, 128, 512]            256
│    │    └─ReLU: 3-149                  [32, 128, 512]            --
│    └─conv1DBatchNormRelu: 2-52         [32, 128, 512]            --
│    │    └─Conv1d: 3-150                [32, 128, 512]            81,920
│    │    └─BatchNorm1d: 3-151           [32, 128, 512]            256
│    │    └─ReLU: 3-152                  [32, 128, 512]            --
│    └─conv1DBatchNormRelu: 2-53         [32, 128, 512]            --
│    │    └─Conv1d: 3-153                [32, 128, 512]            81,920
│    │    └─BatchNorm1d: 3-154           [32, 128, 512]            256
│    │    └─ReLU: 3-155                  [32, 128, 512]            --
│    └─conv1DBatchNormRelu: 2-54         [32, 128, 512]            --
│    │    └─Conv1d: 3-156                [32, 128, 512]            81,920
│    │    └─BatchNorm1d: 3-157           [32, 128, 512]            256
│    │    └─ReLU: 3-158                  [32, 128, 512]            --
│    └─conv1DBatchNormRelu: 2-55         [32, 128, 512]            --
│    │    └─Conv1d: 3-159                [32, 128, 512]            81,920
│    │    └─BatchNorm1d: 3-160           [32, 128, 512]            256
│    │    └─ReLU: 3-161                  [32, 128, 512]            --
│    └─conv1DBatchNormRelu: 2-56         [32, 128, 512]            --
│    │    └─Conv1d: 3-162                [32, 128, 512]            81,920
│    │    └─BatchNorm1d: 3-163           [32, 128, 512]            256
│    │    └─ReLU: 3-164                  [32, 128, 512]            --
│    └─conv1DBatchNormRelu: 2-57         [32, 128, 512]            --
│    │    └─Conv1d: 3-165                [32, 128, 512]            81,920
│    │    └─BatchNorm1d: 3-166           [32, 128, 512]            256
│    │    └─ReLU: 3-167                  [32, 128, 512]            --
│    └─conv1DBatchNormRelu: 2-58         [32, 128, 512]            --
│    │    └─Conv1d: 3-168                [32, 128, 512]            81,920
│    │    └─BatchNorm1d: 3-169           [32, 128, 512]            256
│    │    └─ReLU: 3-170                  [32, 128, 512]            --
│    └─conv1DBatchNormRelu: 2-59         [32, 128, 512]            --
│    │    └─Conv1d: 3-171                [32, 128, 512]            81,920
│    │    └─BatchNorm1d: 3-172           [32, 128, 512]            256
│    │    └─ReLU: 3-173                  [32, 128, 512]            --
│    └─conv1DBatchNormRelu: 2-60         [32, 128, 512]            --
│    │    └─Conv1d: 3-174                [32, 128, 512]            81,920
│    │    └─BatchNorm1d: 3-175           [32, 128, 512]            256
│    │    └─ReLU: 3-176                  [32, 128, 512]            --
│    └─conv1DBatchNormRelu: 2-61         [32, 128, 512]            --
│    │    └─Conv1d: 3-177                [32, 128, 512]            81,920
│    │    └─BatchNorm1d: 3-178           [32, 128, 512]            256
│    │    └─ReLU: 3-179                  [32, 128, 512]            --
│    └─conv1DBatchNormRelu: 2-62         [32, 128, 512]            --
│    │    └─Conv1d: 3-180                [32, 128, 512]            81,920
│    │    └─BatchNorm1d: 3-181           [32, 128, 512]            256
│    │    └─ReLU: 3-182                  [32, 128, 512]            --
│    └─conv1DBatchNormRelu: 2-63         [32, 128, 512]            --
│    │    └─Conv1d: 3-183                [32, 128, 512]            81,920
│    │    └─BatchNorm1d: 3-184           [32, 128, 512]            256
│    │    └─ReLU: 3-185                  [32, 128, 512]            --
│    └─conv1DBatchNormRelu: 2-64         [32, 128, 512]            --
│    │    └─Conv1d: 3-186                [32, 128, 512]            81,920
│    │    └─BatchNorm1d: 3-187           [32, 128, 512]            256
│    │    └─ReLU: 3-188                  [32, 128, 512]            --
│    └─conv1DBatchNormRelu: 2-65         [32, 128, 512]            --
│    │    └─Conv1d: 3-189                [32, 128, 512]            81,920
│    │    └─BatchNorm1d: 3-190           [32, 128, 512]            256
│    │    └─ReLU: 3-191                  [32, 128, 512]            --
│    └─conv1DBatchNormRelu: 2-66         [32, 128, 512]            --
│    │    └─Conv1d: 3-192                [32, 128, 512]            81,920
│    │    └─BatchNorm1d: 3-193           [32, 128, 512]            256
│    │    └─ReLU: 3-194                  [32, 128, 512]            --
│    └─conv1DBatchNormRelu: 2-67         [32, 128, 512]            --
│    │    └─Conv1d: 3-195                [32, 128, 512]            81,920
│    │    └─BatchNorm1d: 3-196           [32, 128, 512]            256
│    │    └─ReLU: 3-197                  [32, 128, 512]            --
│    └─conv1DBatchNormRelu: 2-68         [32, 128, 512]            --
│    │    └─Conv1d: 3-198                [32, 128, 512]            81,920
│    │    └─BatchNorm1d: 3-199           [32, 128, 512]            256
│    │    └─ReLU: 3-200                  [32, 128, 512]            --
│    └─conv1DBatchNormRelu: 2-69         [32, 128, 512]            --
│    │    └─Conv1d: 3-201                [32, 128, 512]            81,920
│    │    └─BatchNorm1d: 3-202           [32, 128, 512]            256
│    │    └─ReLU: 3-203                  [32, 128, 512]            --
│    └─conv1DBatchNormRelu: 2-70         [32, 128, 512]            --
│    │    └─Conv1d: 3-204                [32, 128, 512]            81,920
│    │    └─BatchNorm1d: 3-205           [32, 128, 512]            256
│    │    └─ReLU: 3-206                  [32, 128, 512]            --
│    └─conv1DBatchNormRelu: 2-71         [32, 128, 512]            --
│    │    └─Conv1d: 3-207                [32, 128, 512]            81,920
│    │    └─BatchNorm1d: 3-208           [32, 128, 512]            256
│    │    └─ReLU: 3-209                  [32, 128, 512]            --
│    └─conv1DBatchNormRelu: 2-72         [32, 128, 512]            --
│    │    └─Conv1d: 3-210                [32, 128, 512]            81,920
│    │    └─BatchNorm1d: 3-211           [32, 128, 512]            256
│    │    └─ReLU: 3-212                  [32, 128, 512]            --
│    └─conv1DBatchNormRelu: 2-73         [32, 128, 512]            --
│    │    └─Conv1d: 3-213                [32, 128, 512]            81,920
│    │    └─BatchNorm1d: 3-214           [32, 128, 512]            256
│    │    └─ReLU: 3-215                  [32, 128, 512]            --
│    └─conv1DBatchNormRelu: 2-74         [32, 128, 512]            --
│    │    └─Conv1d: 3-216                [32, 128, 512]            81,920
│    │    └─BatchNorm1d: 3-217           [32, 128, 512]            256
│    │    └─ReLU: 3-218                  [32, 128, 512]            --
│    └─conv1DBatchNormRelu: 2-75         [32, 128, 512]            --
│    │    └─Conv1d: 3-219                [32, 128, 512]            81,920
│    │    └─BatchNorm1d: 3-220           [32, 128, 512]            256
│    │    └─ReLU: 3-221                  [32, 128, 512]            --
│    └─conv1DBatchNormRelu: 2-76         [32, 128, 512]            --
│    │    └─Conv1d: 3-222                [32, 128, 512]            81,920
│    │    └─BatchNorm1d: 3-223           [32, 128, 512]            256
│    │    └─ReLU: 3-224                  [32, 128, 512]            --
│    └─conv1DBatchNormRelu: 2-77         [32, 128, 512]            --
│    │    └─Conv1d: 3-225                [32, 128, 512]            81,920
│    │    └─BatchNorm1d: 3-226           [32, 128, 512]            256
│    │    └─ReLU: 3-227                  [32, 128, 512]            --
│    └─conv1DBatchNormRelu: 2-78         [32, 128, 512]            --
│    │    └─Conv1d: 3-228                [32, 128, 512]            81,920
│    │    └─BatchNorm1d: 3-229           [32, 128, 512]            256
│    │    └─ReLU: 3-230                  [32, 128, 512]            --
│    └─conv1DBatchNormRelu: 2-79         [32, 128, 512]            --
│    │    └─Conv1d: 3-231                [32, 128, 512]            81,920
│    │    └─BatchNorm1d: 3-232           [32, 128, 512]            256
│    │    └─ReLU: 3-233                  [32, 128, 512]            --
│    └─conv1DBatchNormRelu: 2-80         [32, 128, 512]            --
│    │    └─Conv1d: 3-234                [32, 128, 512]            81,920
│    │    └─BatchNorm1d: 3-235           [32, 128, 512]            256
│    │    └─ReLU: 3-236                  [32, 128, 512]            --
│    └─conv1DBatchNormRelu: 2-81         [32, 128, 512]            --
│    │    └─Conv1d: 3-237                [32, 128, 512]            81,920
│    │    └─BatchNorm1d: 3-238           [32, 128, 512]            256
│    │    └─ReLU: 3-239                  [32, 128, 512]            --
│    └─conv1DBatchNormRelu: 2-82         [32, 128, 512]            --
│    │    └─Conv1d: 3-240                [32, 128, 512]            81,920
│    │    └─BatchNorm1d: 3-241           [32, 128, 512]            256
│    │    └─ReLU: 3-242                  [32, 128, 512]            --
│    └─conv1DBatchNormRelu: 2-83         [32, 128, 512]            --
│    │    └─Conv1d: 3-243                [32, 128, 512]            81,920
│    │    └─BatchNorm1d: 3-244           [32, 128, 512]            256
│    │    └─ReLU: 3-245                  [32, 128, 512]            --
│    └─conv1DBatchNormRelu: 2-84         [32, 128, 512]            --
│    │    └─Conv1d: 3-246                [32, 128, 512]            81,920
│    │    └─BatchNorm1d: 3-247           [32, 128, 512]            256
│    │    └─ReLU: 3-248                  [32, 128, 512]            --
│    └─conv1DBatchNormRelu: 2-85         [32, 128, 512]            --
│    │    └─Conv1d: 3-249                [32, 128, 512]            81,920
│    │    └─BatchNorm1d: 3-250           [32, 128, 512]            256
│    │    └─ReLU: 3-251                  [32, 128, 512]            --
│    └─conv1DBatchNormRelu: 2-86         [32, 128, 512]            --
│    │    └─Conv1d: 3-252                [32, 128, 512]            81,920
│    │    └─BatchNorm1d: 3-253           [32, 128, 512]            256
│    │    └─ReLU: 3-254                  [32, 128, 512]            --
│    └─conv1DBatchNormRelu: 2-87         [32, 128, 512]            --
│    │    └─Conv1d: 3-255                [32, 128, 512]            81,920
│    │    └─BatchNorm1d: 3-256           [32, 128, 512]            256
│    │    └─ReLU: 3-257                  [32, 128, 512]            --
│    └─conv1DBatchNormRelu: 2-88         [32, 128, 512]            --
│    │    └─Conv1d: 3-258                [32, 128, 512]            81,920
│    │    └─BatchNorm1d: 3-259           [32, 128, 512]            256
│    │    └─ReLU: 3-260                  [32, 128, 512]            --
│    └─conv1DBatchNormRelu: 2-89         [32, 128, 512]            --
│    │    └─Conv1d: 3-261                [32, 128, 512]            81,920
│    │    └─BatchNorm1d: 3-262           [32, 128, 512]            256
│    │    └─ReLU: 3-263                  [32, 128, 512]            --
│    └─conv1DBatchNormRelu: 2-90         [32, 128, 512]            --
│    │    └─Conv1d: 3-264                [32, 128, 512]            81,920
│    │    └─BatchNorm1d: 3-265           [32, 128, 512]            256
│    │    └─ReLU: 3-266                  [32, 128, 512]            --
│    └─conv1DBatchNormRelu: 2-91         [32, 128, 512]            --
│    │    └─Conv1d: 3-267                [32, 128, 512]            81,920
│    │    └─BatchNorm1d: 3-268           [32, 128, 512]            256
│    │    └─ReLU: 3-269                  [32, 128, 512]            --
│    └─conv1DBatchNormRelu: 2-92         [32, 128, 512]            --
│    │    └─Conv1d: 3-270                [32, 128, 512]            81,920
│    │    └─BatchNorm1d: 3-271           [32, 128, 512]            256
│    │    └─ReLU: 3-272                  [32, 128, 512]            --
│    └─conv1DBatchNormRelu: 2-93         [32, 128, 512]            --
│    │    └─Conv1d: 3-273                [32, 128, 512]            81,920
│    │    └─BatchNorm1d: 3-274           [32, 128, 512]            256
│    │    └─ReLU: 3-275                  [32, 128, 512]            --
│    └─conv1DBatchNormRelu: 2-94         [32, 128, 512]            --
│    │    └─Conv1d: 3-276                [32, 128, 512]            81,920
│    │    └─BatchNorm1d: 3-277           [32, 128, 512]            256
│    │    └─ReLU: 3-278                  [32, 128, 512]            --
│    └─conv1DBatchNormRelu: 2-95         [32, 128, 512]            --
│    │    └─Conv1d: 3-279                [32, 128, 512]            81,920
│    │    └─BatchNorm1d: 3-280           [32, 128, 512]            256
│    │    └─ReLU: 3-281                  [32, 128, 512]            --
│    └─conv1DBatchNormRelu: 2-96         [32, 128, 512]            --
│    │    └─Conv1d: 3-282                [32, 128, 512]            81,920
│    │    └─BatchNorm1d: 3-283           [32, 128, 512]            256
│    │    └─ReLU: 3-284                  [32, 128, 512]            --
│    └─conv1DBatchNormRelu: 2-97         [32, 128, 512]            --
│    │    └─Conv1d: 3-285                [32, 128, 512]            81,920
│    │    └─BatchNorm1d: 3-286           [32, 128, 512]            256
│    │    └─ReLU: 3-287                  [32, 128, 512]            --
│    └─conv1DBatchNormRelu: 2-98         [32, 128, 512]            --
│    │    └─Conv1d: 3-288                [32, 128, 512]            81,920
│    │    └─BatchNorm1d: 3-289           [32, 128, 512]            256
│    │    └─ReLU: 3-290                  [32, 128, 512]            --
│    └─conv1DBatchNormRelu: 2-99         [32, 128, 512]            --
│    │    └─Conv1d: 3-291                [32, 128, 512]            81,920
│    │    └─BatchNorm1d: 3-292           [32, 128, 512]            256
│    │    └─ReLU: 3-293                  [32, 128, 512]            --
│    └─conv1DBatchNormRelu: 2-100        [32, 128, 512]            --
│    │    └─Conv1d: 3-294                [32, 128, 512]            81,920
│    │    └─BatchNorm1d: 3-295           [32, 128, 512]            256
│    │    └─ReLU: 3-296                  [32, 128, 512]            --
│    └─conv1DBatchNormRelu: 2-101        [32, 128, 512]            --
│    │    └─Conv1d: 3-297                [32, 128, 512]            81,920
│    │    └─BatchNorm1d: 3-298           [32, 128, 512]            256
│    │    └─ReLU: 3-299                  [32, 128, 512]            --
│    └─conv1DBatchNormRelu: 2-102        [32, 128, 512]            --
│    │    └─Conv1d: 3-300                [32, 128, 512]            81,920
│    │    └─BatchNorm1d: 3-301           [32, 128, 512]            256
│    │    └─ReLU: 3-302                  [32, 128, 512]            --
│    └─conv1DBatchNormRelu: 2-103        [32, 128, 512]            --
│    │    └─Conv1d: 3-303                [32, 128, 512]            81,920
│    │    └─BatchNorm1d: 3-304           [32, 128, 512]            256
│    │    └─ReLU: 3-305                  [32, 128, 512]            --
│    └─conv1DBatchNormRelu: 2-104        [32, 128, 512]            --
│    │    └─Conv1d: 3-306                [32, 128, 512]            81,920
│    │    └─BatchNorm1d: 3-307           [32, 128, 512]            256
│    │    └─ReLU: 3-308                  [32, 128, 512]            --
│    └─conv1DBatchNormRelu: 2-105        [32, 128, 512]            --
│    │    └─Conv1d: 3-309                [32, 128, 512]            81,920
│    │    └─BatchNorm1d: 3-310           [32, 128, 512]            256
│    │    └─ReLU: 3-311                  [32, 128, 512]            --
│    └─conv1DBatchNormRelu: 2-106        [32, 128, 512]            --
│    │    └─Conv1d: 3-312                [32, 128, 512]            81,920
│    │    └─BatchNorm1d: 3-313           [32, 128, 512]            256
│    │    └─ReLU: 3-314                  [32, 128, 512]            --
│    └─conv1DBatchNormRelu: 2-107        [32, 128, 512]            --
│    │    └─Conv1d: 3-315                [32, 128, 512]            81,920
│    │    └─BatchNorm1d: 3-316           [32, 128, 512]            256
│    │    └─ReLU: 3-317                  [32, 128, 512]            --
│    └─conv1DBatchNormRelu: 2-108        [32, 128, 512]            --
│    │    └─Conv1d: 3-318                [32, 128, 512]            81,920
│    │    └─BatchNorm1d: 3-319           [32, 128, 512]            256
│    │    └─ReLU: 3-320                  [32, 128, 512]            --
│    └─conv1DBatchNormRelu: 2-109        [32, 128, 512]            --
│    │    └─Conv1d: 3-321                [32, 128, 512]            81,920
│    │    └─BatchNorm1d: 3-322           [32, 128, 512]            256
│    │    └─ReLU: 3-323                  [32, 128, 512]            --
│    └─conv1DBatchNormRelu: 2-110        [32, 128, 512]            --
│    │    └─Conv1d: 3-324                [32, 128, 512]            81,920
│    │    └─BatchNorm1d: 3-325           [32, 128, 512]            256
│    │    └─ReLU: 3-326                  [32, 128, 512]            --
│    └─conv1DBatchNormRelu: 2-111        [32, 128, 512]            --
│    │    └─Conv1d: 3-327                [32, 128, 512]            81,920
│    │    └─BatchNorm1d: 3-328           [32, 128, 512]            256
│    │    └─ReLU: 3-329                  [32, 128, 512]            --
│    └─conv1DBatchNormRelu: 2-112        [32, 128, 512]            --
│    │    └─Conv1d: 3-330                [32, 128, 512]            81,920
│    │    └─BatchNorm1d: 3-331           [32, 128, 512]            256
│    │    └─ReLU: 3-332                  [32, 128, 512]            --
│    └─conv1DBatchNormRelu: 2-113        [32, 128, 512]            --
│    │    └─Conv1d: 3-333                [32, 128, 512]            81,920
│    │    └─BatchNorm1d: 3-334           [32, 128, 512]            256
│    │    └─ReLU: 3-335                  [32, 128, 512]            --
│    └─conv1DBatchNormRelu: 2-114        [32, 128, 512]            --
│    │    └─Conv1d: 3-336                [32, 128, 512]            81,920
│    │    └─BatchNorm1d: 3-337           [32, 128, 512]            256
│    │    └─ReLU: 3-338                  [32, 128, 512]            --
│    └─conv1DBatchNormRelu: 2-115        [32, 128, 512]            --
│    │    └─Conv1d: 3-339                [32, 128, 512]            81,920
│    │    └─BatchNorm1d: 3-340           [32, 128, 512]            256
│    │    └─ReLU: 3-341                  [32, 128, 512]            --
│    └─conv1DBatchNormRelu: 2-116        [32, 128, 512]            --
│    │    └─Conv1d: 3-342                [32, 128, 512]            81,920
│    │    └─BatchNorm1d: 3-343           [32, 128, 512]            256
│    │    └─ReLU: 3-344                  [32, 128, 512]            --
│    └─conv1DBatchNormRelu: 2-117        [32, 128, 512]            --
│    │    └─Conv1d: 3-345                [32, 128, 512]            81,920
│    │    └─BatchNorm1d: 3-346           [32, 128, 512]            256
│    │    └─ReLU: 3-347                  [32, 128, 512]            --
│    └─conv1DBatchNormRelu: 2-118        [32, 128, 512]            --
│    │    └─Conv1d: 3-348                [32, 128, 512]            81,920
│    │    └─BatchNorm1d: 3-349           [32, 128, 512]            256
│    │    └─ReLU: 3-350                  [32, 128, 512]            --
│    └─conv1DBatchNormRelu: 2-119        [32, 128, 512]            --
│    │    └─Conv1d: 3-351                [32, 128, 512]            81,920
│    │    └─BatchNorm1d: 3-352           [32, 128, 512]            256
│    │    └─ReLU: 3-353                  [32, 128, 512]            --
│    └─conv1DBatchNormRelu: 2-120        [32, 128, 512]            --
│    │    └─Conv1d: 3-354                [32, 128, 512]            81,920
│    │    └─BatchNorm1d: 3-355           [32, 128, 512]            256
│    │    └─ReLU: 3-356                  [32, 128, 512]            --
│    └─conv1DBatchNormRelu: 2-121        [32, 128, 512]            --
│    │    └─Conv1d: 3-357                [32, 128, 512]            81,920
│    │    └─BatchNorm1d: 3-358           [32, 128, 512]            256
│    │    └─ReLU: 3-359                  [32, 128, 512]            --
│    └─conv1DBatchNormRelu: 2-122        [32, 128, 512]            --
│    │    └─Conv1d: 3-360                [32, 128, 512]            81,920
│    │    └─BatchNorm1d: 3-361           [32, 128, 512]            256
│    │    └─ReLU: 3-362                  [32, 128, 512]            --
│    └─conv1DBatchNorm: 2-123            [32, 128, 512]            --
│    │    └─Conv1d: 3-363                [32, 128, 512]            81,920
│    │    └─BatchNorm1d: 3-364           [32, 128, 512]            256
│    └─Hardswish: 2-124                  [32, 128, 512]            --
│    └─conv1DBatchNorm: 2-125            [32, 1, 508]              --
│    │    └─Conv1d: 3-365                [32, 1, 508]              640
│    │    └─BatchNorm1d: 3-366           [32, 1, 508]              2
==========================================================================================
Total params: 9,947,419
Trainable params: 9,947,419
Non-trainable params: 0
Total mult-adds (G): 162.47
==========================================================================================
Input size (MB): 0.07
Forward/backward pass size (MB): 4094.56
Params size (MB): 39.79
Estimated Total Size (MB): 4134.41
…
